data/speech_model_lstm.pth (torch, 217979 bytes, 10 tensors)

lstm.weight_ih_l0 f4 [256, 13]
0	0x3b5e7afb	0.0033947814
1	0x3d2a16f5	0.0415258
2	0x39ea6489	0.00044706863
3	0x3e070bb4	0.13188058
4	0x3d15860b	0.036504786
5	0x3d927542	0.071512714
6	0x3b94209f	0.0045204903
7	0x3df6e828	0.12055999
8	0xbde98113	-0.11401572
9	0x3d8fd9b5	0.07023946
10	0xbde518c6	-0.11186366
11	0xbd3749c4	-0.044748083
12	0x3d92fbce	0.07176934
13	0x3d44be89	0.04803327
14	0x3de03d04	0.10949138
15	0x3ca7bb95	0.020475188
16	0xbdc59eb7	-0.09649413
17	0x3daeb74b	0.08531054
18	0xbdb7982f	-0.089645736
19	0x3d84c670	0.064831614
20	0x3e025b42	0.12730125
21	0xbbf5aba9	-0.00749727
22	0xbdf71d72	-0.12066163
23	0xbcc2ff3a	-0.023803342
24	0xbcd148ef	-0.025547473
25	0xbd18781f	-0.03722393
26	0xbd90cbd2	-0.07070126
27	0x3c03d330	0.0080459565
28	0xbd813737	-0.063093595
29	0x3daf0b12	0.08547033
30	0xbcc00e81	-0.023444416
31	0x3d56b4ba	0.052418448
32	0x3c6f5b08	0.014609106
33	0x3de1b388	0.11020571
34	0xbdf6c062	-0.12048413
35	0x3d829aa2	0.0637715
36	0x3d0b26f3	0.03397269
37	0xbdb9e28e	-0.09076415
38	0x3d6f4697	0.05841693
39	0xbd9e1b18	-0.077200115
40	0xbe118134	-0.14209443
41	0x3d65df30	0.05612105
42	0x3cf74624	0.030184813
43	0x3e0ffd10	0.1406138
44	0xbd8d8c4f	-0.06911527
45	0x3c55bcd4	0.013045508
46	0xbd898feb	-0.06716903
47	0xbd15fae7	-0.036616232
48	0x3e0edb67	0.13950883
49	0x3e147e34	0.14501268
50	0x3d1d3bdf	0.038387176
51	0x3aaddb96	0.0013264294
52	0xbd861086	-0.0654612
53	0xbe0754ca	-0.13215938
54	0xbdb1e97e	-0.08687113
55	0xbe10a0ba	-0.14123812
56	0x3d86c866	0.06581192
57	0x3d470875	0.04859205
58	0xbdb153b4	-0.08658543
59	0xbd12449d	-0.035709966
60	0x3de2763e	0.11057709
61	0x3d8dcdac	0.069239944
62	0x3de4954e	0.1116129
63	0xbde6b9e5	-0.11265925
64	0xbdbf4d5f	-0.09340929
65	0x3d8f5f0e	0.07000552
66	0x3c192748	0.009347744
67	0x3d8a4354	0.06751123
68	0x3d9a77dd	0.07542393
69	0x3d826eac	0.06368765
70	0xbdf4be6c	-0.119503826
71	0xbd936f33	-0.07198944
72	0xbd089f0e	-0.03335481
73	0xbe0aa44b	-0.13539235
74	0xbd4aa269	-0.049471293
75	0xbd6feb79	-0.058574174
76	0xbdb091dc	-0.086215705
77	0xbe572560	-0.21010351
78	0x3dec38ed	0.11534295
79	0x3d8ad8cf	0.06779634
80	0x3c7f96bf	0.0155999055
81	0xbe365c5f	-0.17808674
82	0x3d38bea6	0.04510369
83	0xbe0da860	-0.13833761
84	0x3de04cf4	0.10952178
85	0x3db5c0b7	0.08874648
86	0x3cf167f5	0.029468516
87	0x3d42e2df	0.047579642
88	0xbde0c6db	-0.10975429
89	0xbd3c5cdd	-0.045987
90	0xbc6a0e0f	-0.014285578
91	0x3d83ca87	0.064351134
92	0xbc72169a	-0.014775896
93	0x3d05d277	0.032671418
94	0xbdd158d3	-0.1022202
95	0xbcc42984	-0.023945577
96	0xbe0f03e5	-0.1396633
97	0x3deeac52	0.11653961
98	0x3dc62cac	0.09676489
99	0x3cef7d26	0.02923448
100	0xbd83cf78	-0.06436056
101	0xbe02ab36	-0.12760624
102	0x3d7f33e6	0.062305354
103	0x3db9ccf0	0.09072292
104	0xbd0831e5	-0.033250708
105	0xbd37cbeb	-0.044872206
106	0x3d825909	0.06364638
107	0xbda856c1	-0.08219672
108	0xbd7ce233	-0.061739158
109	0xbdd1e46a	-0.10248645
110	0x3cc56429	0.024095612
111	0xbbfe1600	-0.0077540874
112	0x3e0ff9e1	0.14060165
113	0xbd98e77e	-0.07466029
114	0x3d9f858a	0.077891424
115	0xbdd4485a	-0.103653625
116	0xbd90eabc	-0.07076022
117	0x3d5bf4f9	0.05370042
118	0xbd2ba562	-0.04190577
119	0x3dc1c89c	0.09462091
120	0x3de6c353	0.11267724
121	0x3da30f7f	0.0796194
122	0x3e03351a	0.12813225
123	0x3d20ada9	0.039228115
124	0xbe028a06	-0.12747964
125	0xbe60ce1f	-0.21953629
126	0xbe1abf08	-0.15111935
127	0xbe037731	-0.12838437
128	0x3d84d5a0	0.06486058
129	0xbbcd7b21	-0.0062707816
130	0x3d375f93	0.04476888
131	0xbc1ac71e	-0.009446887
132	0xbdb208f7	-0.08693116
133	0x3e1be1e1	0.15222885
134	0x3d3f370b	0.046683352
135	0x3e0d4051	0.13794066
136	0x3db544c4	0.088510066
137	0x3d980606	0.07423024
138	0x3ca011b2	0.019539688
139	0x3cd022df	0.025407253
140	0xbda2eee3	-0.0795572
141	0xbe406aea	-0.18790784
142	0x3d429cd0	0.04751283
143	0x3dc58dd4	0.09646192
144	0xbdd9d683	-0.10636618
145	0x3c2c1b55	0.010504563
146	0xbcd7ee77	-0.026358826
147	0xbc95492d	-0.01822337
148	0xbcaed1da	-0.0213403
149	0xbda1060d	-0.07862482
150	0xbbdd36df	-0.006750926
151	0xbd221c0e	-0.039577536
152	0xbcff7cc6	-0.031187426
153	0x3ddfb0c3	0.109223865
154	0xbdd74562	-0.105112806
155	0x3c7b83fd	0.015351293
156	0x3cd13d0c	0.025541805
157	0x3d36bccb	0.04461364
158	0xbdf05079	-0.11734099
159	0x3ca1d392	0.019754205
160	0x3c51dff7	0.012809745
161	0xbcdb48af	-0.026768057
162	0xbdae3199	-0.08505554
163	0x3d7ba56b	0.06143705
164	0x3db60f04	0.08889583
165	0x3de716b4	0.11283627
166	0x3d3fdfcf	0.0468443
167	0xbd47098e	-0.048593096
168	0x3d248537	0.040166106
169	0x3c075a2a	0.008261243
170	0x3cf3707e	0.029716726
171	0x3d8761a7	0.066104226
172	0x3cf9b7fb	0.030483237
173	0x3d525af5	0.051356275
174	0xbcd83a36	-0.026394945
175	0x3d873788	0.066023886
176	0x3b8a36a0	0.0042179376
177	0x3da4470e	0.08021365
178	0x3d167384	0.036731258
179	0x3d8ce9af	0.06880509
180	0x3dac88f2	0.08424558
181	0xbdbf67ab	-0.09345945
182	0xbd70bca1	-0.05877364
183	0x3e08fd75	0.13377936
184	0xbd9c0620	-0.07618356
185	0x3d875f06	0.06609921
186	0x3bb1a23b	0.0054209507
187	0xbd600fff	-0.054702755
188	0x3d589866	0.052879713
189	0x3dfbfbe5	0.123039044
190	0x3c1c6a56	0.009546837
191	0x3dd39a9f	0.10332226
192	0x3ccddd67	0.025129987
193	0x3dd2854a	0.10279329
194	0x3d4a2569	0.049352083
195	0x3d45d5be	0.048299544
196	0xbd0e6c17	-0.03477105
197	0x3d063949	0.032769475
198	0xbd012434	-0.031528667
199	0xbce1a337	-0.027543647
200	0xbdc91ada	-0.09819575
201	0xbdb72226	-0.0894206
202	0xbd98ecf4	-0.0746707
203	0xbde19199	-0.11014099
204	0xbe19bca2	-0.15013364
205	0xbc9c2c9b	-0.019064238
206	0x3c6d142f	0.014470144
207	0x3e21c83c	0.1579904
208	0xbdddccb7	-0.10830062
209	0x3ca59a5d	0.020215208
210	0xbdca7812	-0.09886183
211	0xbb7807d8	-0.0037846472
212	0xbd12c7f5	-0.035835225
213	0xbd5df4b3	-0.05418844
214	0xbdd9de3c	-0.10638091
215	0xbdbecca6	-0.09316377
216	0x3c4c730d	0.012478602
217	0xbd536821	-0.051612977
218	0x3d2b7ba5	0.041865963
219	0xbd9dc6c2	-0.07703926
220	0xbd750d9d	-0.059827436
221	0xbe002af5	-0.12516387
222	0x3cfe8b0d	0.031072164
223	0x3d9812ca	0.07425459
224	0xbda733d5	-0.08164183
225	0x3da16fc9	0.078826495
226	0xbd831363	-0.06400182
227	0xbda6c70b	-0.08143433
228	0xbda3f0d8	-0.08004922
229	0xbdc8dc28	-0.098076165
230	0x3de2e191	0.1107818
231	0xbcee1159	-0.029061006
232	0x3d1c2706	0.038123153
233	0xbdf67a87	-0.12035089
234	0xbdfdc170	-0.12390411
235	0x3de95adc	0.11394283
236	0xbb0d5c3f	-0.0021569876
237	0xbc622d68	-0.013804771
238	0xbd9cd4f7	-0.07657807
239	0x3da84118	0.08215541
240	0x3d4f86c3	0.05066563
241	0x3e2555c2	0.16145995
242	0x3dd4cfe7	0.10391217
243	0x3d8d5d52	0.06902565
244	0xbd5aba5b	-0.05340038
245	0x3e059b13	0.13047437
246	0xbd821ded	-0.06353364
247	0xbd79be84	-0.060972705
248	0x3de56ea4	0.11202744
249	0x3c812f7e	0.015769716
250	0x3bcf5821	0.0063276445
251	0xbc3e3f12	-0.011611717
252	0xbe1fb99b	-0.15598147
253	0xbdcbf114	-0.099580914
254	0x3d0ddf98	0.034637064
255	0x3dbcc3e6	0.09217052

lstm.weight_hh_l0 f4 [256, 64]
0	0x3d75fc15	0.060054857
1	0x3e0c036c	0.1367318
2	0x3d2d80f7	0.04235932
3	0xbdcfc375	-0.10144702
4	0xbc129d8e	-0.008948697
5	0xbc9cbcf1	-0.019133063
6	0xbd990d3e	-0.07473229
7	0x3d065f39	0.032805655
8	0x3dca01fa	0.09863658
9	0xbdb29dd4	-0.087215096
10	0x3d12ff2e	0.03588789
11	0x3cbf4b90	0.02335146
12	0x3de357f7	0.11100762
13	0x3d67f108	0.05662635
14	0xbdde5dbd	-0.10857723
15	0x3dafbb28	0.08580619
16	0xbdf5e9e8	-0.12007505
17	0xbd94eac8	-0.072713435
18	0x3d8e0ed4	0.06936422
19	0xbc6527ef	-0.013986572
20	0x3d558bd3	0.0521353
21	0x3d506ce6	0.050885104
22	0xbd9a3ff1	-0.07531727
23	0x3b2992b1	0.0025874788
24	0xbe0e9635	-0.13924487
25	0x3d6a652a	0.057225384
26	0xbd3c60cf	-0.04599076
27	0x3d9e9229	0.077427216
28	0xbab10a3e	-0.0013507081
29	0x3de061a9	0.10956127
30	0x3dd54a81	0.10414601
31	0xbd931fbc	-0.07183787
32	0xbd9bc99b	-0.076068126
33	0xbcb7498e	-0.02237394
34	0x3be4f2e0	0.006986961
35	0xbcf56c90	-0.029958993
36	0xbd2c5abf	-0.04207873
37	0xbd10849f	-0.035282727
38	0x3ddb11de	0.10696767
39	0x3c736d29	0.014857569
40	0x3e0c4798	0.13699186
41	0xbd5ea8e4	-0.054360285
42	0xbd1cf666	-0.03832092
43	0xbdcac43a	-0.099007085
44	0xbae84666	-0.0017721176
45	0x3d71ec8a	0.05906347
46	0xbd787308	-0.060656577
47	0x3ad0dd83	0.0015935156
48	0x3d0a6e6e	0.03379672
49	0xbd9d9ba3	-0.07695701
50	0x3dcd5637	0.1002621
51	0x3d50c836	0.050972186
52	0x3d340656	0.043951355
53	0x3b93a607	0.004505876
54	0x3d24f7e8	0.040275484
55	0x3de311a3	0.11087348
56	0xbdb9e327	-0.09076529
57	0xbd4aaec5	-0.04948308
58	0x3d215002	0.039382942
59	0xbd87ef2b	-0.066374145
60	0xbdc83c3a	-0.09777112
61	0xbc32639c	-0.010888007
62	0xbdce8b85	-0.10085205
63	0xbdea193c	-0.11430594
64	0xbd814f89	-0.06313998
65	0x3d7cdee3	0.061736
66	0x3dcc7e38	0.09985012
67	0xbdbc6144	-0.091982394
68	0xbdef8883	-0.116959594
69	0xbd823ddd	-0.06359456
70	0xbcf6e4f1	-0.030138465
71	0xbbb6976c	-0.00557225
72	0x3d11c2b2	0.035586067
73	0x3cc876e9	0.024470763
74	0x3dbc8718	0.092054546
75	0x3dab2d4d	0.0835825
76	0x3e05be13	0.13060789
77	0x3cf6fa15	0.030148545
78	0x3d28de8f	0.041227873
79	0xbd1cb06a	-0.03825418
80	0xbde0d279	-0.109776445
81	0xbde1a3fa	-0.11017604
82	0x3d85d973	0.06535616
83	0x3c951728	0.018199518
84	0xbddecccf	-0.10878908
85	0x3d2cf70c	0.04222779
86	0x3dd65d5e	0.10467027
87	0x3dab6201	0.08368302
88	0xbcb829d5	-0.022480885
89	0xbd9df312	-0.077123776
90	0x3c62ebd2	0.013850169
91	0x3d8154a4	0.06314972
92	0xbd331989	-0.043725524
93	0x3d9e6079	0.077332444
94	0xbd1e8fe0	-0.03871143
95	0xbda32b84	-0.07967284
96	0x3e10fad7	0.14158188
97	0xbcb8b48f	-0.022547035
98	0x3d2eba61	0.042658214
99	0xbdcfde52	-0.10149826
100	0xbe1b1e89	-0.15148367
101	0xbdf3d006	-0.11904912
102	0xbdae4359	-0.08508939
103	0x3b96c235	0.004600788
104	0x3d91dd71	0.07122315
105	0xbce7f366	-0.028314304
106	0x3de39892	0.11113085
107	0xbd58bc4f	-0.05291396
108	0x3c7598d2	0.0149900485
109	0xbd3593ee	-0.04433053
110	0x3cb6488a	0.022251386
111	0xbd8a4cac	-0.06752905
112	0xbd816e9d	-0.06319926
113	0xbdb33ec8	-0.08752209
114	0xbd336cc3	-0.043804895
115	0xbda2eae9	-0.07954962
116	0x3d76df54	0.060271576
117	0x3d864d6b	0.06557735
118	0x3b6838e7	0.0035434307
119	0x3d9d62d3	0.07684865
120	0x3d47ab60	0.04874742
121	0xbda3972b	-0.079878174
122	0xbd43c1c7	-0.047792222
123	0xbe014781	-0.12624933
124	0xbd54701c	-0.05186473
125	0xbdcf0ce3	-0.1010988
126	0x3d2f136f	0.042743143
127	0xbdf0ab6a	-0.11751445
128	0x3c27024e	0.010193421
129	0x3e302044	0.17199808
130	0x3dbb760a	0.091533735
131	0xbd8619e8	-0.0654791
132	0xbe053626	-0.13008937
133	0xbd171c67	-0.03689232
134	0x3d3417df	0.043968078
135	0xbe0464e0	-0.12929106
136	0x3cda7c31	0.026670547
137	0xbd584e07	-0.052808788
138	0xbd171947	-0.03688934
139	0x3d8a04ed	0.06739221
140	0xbc9feda7	-0.019522501
141	0xbce7954a	-0.028269429
142	0xbd97d39c	-0.07413408
143	0xbc3eefaa	-0.01165382
144	0x3d4f4885	0.05060627
145	0xbdc16b21	-0.09444261
146	0x3cec7e1f	0.028868733
147	0x3bf8e6c6	0.0075958697
148	0x3d5e4692	0.05426652
149	0xbd8c15e2	-0.06840111
150	0x3cddaf75	0.027061203
151	0x3a852436	0.0010157886
152	0x3d9a071f	0.075208895
153	0x3afdf063	0.0019374009
154	0xbc2f87b3	-0.010713506
155	0x3d55362c	0.052053615
156	0x3c9968e6	0.018726777
157	0x3dc60869	0.09669573
158	0x3d6daf87	0.058028724
159	0x3d8c136c	0.06839642
160	0x3cdb1c62	0.026746932
161	0x3d41279d	0.04715692
162	0xbda45719	-0.08024425
163	0x3e0d438a	0.13795295
164	0xbd07f4b3	-0.033192348
165	0xbe0402c8	-0.12891686
166	0xbce0500e	-0.027381923
167	0x3ba8983d	0.0051451013
168	0xbdd8c9fa	-0.10585399
169	0xbdb22c9b	-0.08699914
170	0x3d8c7e53	0.06860032
171	0x3d8ee82b	0.06977876
172	0x3d11c59a	0.03558884
173	0xbd8edaee	-0.06975351
174	0x3d3831e8	0.04496947
175	0x3e191a30	0.14951396
176	0x3cd68186	0.026184808
177	0x3e0274aa	0.12739816
178	0x3cc309c5	0.02380837
179	0xbe0c9cda	-0.13731709
180	0xbd82dd33	-0.06389847
181	0xbc428921	-0.011873514
182	0xbd97df0e	-0.07415591
183	0xbdad77a2	-0.08470084
184	0xbba72fe0	-0.0051021427
185	0xbda12657	-0.07868641
186	0x3d375eb9	0.04476807
187	0xbcc7458b	-0.024325153
188	0x3da11995	0.078662075
189	0xbde465cf	-0.11152231
190	0xbb2bab29	-0.0026194549
191	0x3c4b9153	0.012424785
192	0x3de5edbb	0.11226984
193	0xbdefa09e	-0.11700557
194	0x3d48171b	0.04885016
195	0xbe05f1ed	-0.13080569
196	0x3da849cf	0.08217203
197	0x39f0e23c	0.00045944925
198	0x3dbe4eac	0.09292349
199	0x3df3cc1c	0.11904165
200	0xbcd8a2b6	-0.026444774
201	0xbd75ff2c	-0.060057804
202	0xbc0ea0ab	-0.008705298
203	0xbdcf4200	-0.101200104
204	0xbdcba99a	-0.09944458
205	0x3d77135a	0.06032119
206	0xbc1c313f	-0.009533226
207	0xbd46b306	-0.048510574
208	0xbda9fa68	-0.08299714
209	0x3d68215b	0.056672435
210	0x3d27bf38	0.040953845
211	0x3ab5258d	0.0013820395
212	0xbd086dd9	-0.033307884
213	0x3d5f1311	0.054461543
214	0xbdff41e9	-0.12463743
215	0xbc076e9f	-0.00826612
216	0x3de03a4e	0.10948621
217	0x3d34b61b	0.04411898
218	0x3e353cb8	0.17698944
219	0x3d366873	0.044533204
220	0xbd85bf09	-0.06530578
221	0x3d1e726d	0.038683344
222	0x3cb62558	0.022234604
223	0x3dad0900	0.08448982
224	0x3dc29565	0.09501151
225	0xbdb8c5dc	-0.09022114
226	0xbc4b850d	-0.0124218585
227	0x3d155fb2	0.036468215
228	0x3b00ce99	0.0019654392
229	0xbdbaedac	-0.091273636
230	0xbd24b2d9	-0.040209625
231	0xbd1abb99	-0.037776563
232	0x3dbc9670	0.09208381
233	0x3ce9922b	0.028512081
234	0x3d2680d2	0.040650196
235	0x3d63ae6c	0.055586264
236	0x3dd6cf17	0.10488718
237	0x3dd5e734	0.10444489
238	0xbdb3c0b1	-0.08776987
239	0x3ce4b447	0.027917994
240	0xbdb11e18	-0.08648318
241	0x3b745b91	0.0037286023
242	0xbdcfe814	-0.10151687
243	0x3db41691	0.08793367
244	0xbdde9b6f	-0.1086949
245	0xbc1902be	-0.009339033
246	0xbcbb8121	-0.022888722
247	0xbc86e1fb	-0.016465178
248	0x3da38a27	0.07985335
249	0x3daff5cf	0.08591806
250	0xbba48701	-0.0050209765
251	0xbd87e49e	-0.06635402
252	0x3e040081	0.12890817
253	0xbd5acd23	-0.05341829
254	0xbdafc4a4	-0.08582428
255	0xbd89f034	-0.06735268

lstm.bias_ih_l0 f4 [256]
0	0xbbbe503d	-0.005807905
1	0xbcb6fdb1	-0.022337766
2	0x3d49785b	0.049187046
3	0x3d6c7600	0.05772972
4	0x3d3aaba7	0.045573857
5	0xbd92fc9a	-0.07177086
6	0xbd35cb4c	-0.044383332
7	0xbcf0c22c	-0.029389463
8	0xbd6fe33d	-0.05856632
9	0x3e0cf33f	0.13764666
10	0x3d83fdbe	0.06444882
11	0xbd1e82c3	-0.038698923
12	0xbd81f405	-0.06345371
13	0x3e12a694	0.14321357
14	0xbdb2bd6b	-0.08727535
15	0xb90a4c69	-0.0001318917
16	0x3d0d1f17	0.034453478
17	0xbce7b456	-0.028284233
18	0xbde11cb0	-0.109918
19	0x3d3720d0	0.044709027
20	0x3d8b3ea4	0.06799057
21	0x3e1f7768	0.15572894
22	0x3d877c17	0.06615465
23	0x3da5637c	0.08075616
24	0xbdae3ff5	-0.085082926
25	0x3b7386b7	0.0037159154
26	0x3d4c8eb6	0.049940787
27	0x3d80cb5a	0.06288786
28	0xbcdd6f0f	-0.027030496
29	0xbdde97cb	-0.10868796
30	0xbcf8df45	-0.0303799
31	0xbbba228d	-0.0056803883
32	0xbd991190	-0.07474053
33	0x3bf14cd3	0.0073638945
34	0x3d18296d	0.03714888
35	0x3da3c7cb	0.07997092
36	0xbd2bf68d	-0.041983176
37	0xbdfeaa32	-0.12434806
38	0xbdaf86d5	-0.08570639
39	0x3db20de2	0.08694054
40	0xbd1f8dac	-0.03895347
41	0xbdcc133e	-0.09964608
42	0x3b0ef3b5	0.0021812741
43	0xbd8c45fa	-0.068492845
44	0x3d363d45	0.044492025
45	0xbcb7129c	-0.02234774
46	0xbd1bc502	-0.03802968
47	0xbd450b97	-0.048106756
48	0xbda8ccd0	-0.0824219
49	0xbd841436	-0.064491674
50	0xbdf15c2e	-0.1178516
51	0xbda7da23	-0.08195903
52	0x3de2e16b	0.11078151
53	0x3d3ff09b	0.04686032
54	0x3e0b6127	0.1361128
55	0x3e02d159	0.12775172
56	0x3d8a8eba	0.06765504
57	0x3cec71d0	0.028862864
58	0x3b27ba15	0.0025593091
59	0x3d4efdba	0.05053494
60	0xbdbab34b	-0.09116229
61	0xbd89f33c	-0.067358464
62	0x3d56402b	0.05230729
63	0x3c88c3bf	0.016694902
64	0x3de1a309	0.110174246
65	0xbcb242dc	-0.021760397
66	0x3d6402ba	0.055666663
67	0x3dd12af4	0.10213271
68	0xbd5419cf	-0.051782425
69	0xbd81682c	-0.06318697
70	0x3ddf9b6f	0.109183185
71	0xbc907ddd	-0.017638141
72	0xbd50c959	-0.05097327
73	0xbd96e381	-0.07367612
74	0x3df7c7c1	0.12098647
75	0xbdcd533e	-0.10025643
76	0x3ce3469f	0.027743636
77	0x3dfc4646	0.12318091
78	0xbda639cd	-0.081164934
79	0xbd4bf796	-0.049796663
80	0x3c57fb84	0.013182525
81	0x3db10d11	0.0864507
82	0xbd7f148c	-0.062275454
83	0x3d5d9e2b	0.05410592
84	0xbcc3c326	-0.023896765
85	0xbc43a577	-0.011941305
86	0xbcd9d26e	-0.026589599
87	0x3e053438	0.13008201
88	0x3dd3d480	0.103432655
89	0x3ce2b945	0.027676234
90	0xbdee6f5f	-0.11642336
91	0x3d9b52c3	0.07584145
92	0x3c8279d9	0.015927242
93	0x3d8c0bf9	0.06838221
94	0xbd9595b3	-0.073039435
95	0x3dd5c579	0.104380555
96	0x3dce5f5e	0.100767836
97	0xbcb1762a	-0.02166279
98	0xbd91403d	-0.070923306
99	0x3cbff698	0.023433015
100	0x3e17e796	0.14834437
101	0xbde96bfb	-0.11397549
102	0xbbffad8e	-0.0078026718
103	0xbdb96554	-0.0905253
104	0xbdbabf1b	-0.09118482
105	0xbdcb3f2d	-0.09924159
106	0xbe0e7851	-0.13913085
107	0xbd4a4cbf	-0.049389597
108	0xbc97fa48	-0.01855196
109	0xbd517db9	-0.05114529
110	0xbd6d225f	-0.057894107
111	0xbcc4dd55	-0.02403132
112	0xbdc0efa2	-0.09420706
113	0x3db313b6	0.08743994
114	0xbdd2cdcf	-0.10293161
115	0xbd7a1cbb	-0.061062556
116	0x3c9fc4cf	0.019503025
117	0x3dd2cfab	0.10293516
118	0x3de5fed1	0.11230243
119	0x3dadbec9	0.08483655
120	0x3dbed238	0.0931744
121	0x3d9dcbfc	0.077049226
122	0xbd8ea8ba	-0.06965776
123	0x3db20c55	0.086937584
124	0x3c52047f	0.012818455
125	0xbdc999f3	-0.098438166
126	0x3cbe9d39	0.023268329
127	0x3c6aee82	0.014339091
128	0xbdd9eed9	-0.1064126
129	0xbc5d94b7	-0.013524226
130	0xbdb62614	-0.088939816
131	0x3d07b972	0.03313584
132	0xbdfa3b79	-0.12218375
133	0x3d98e83b	0.074661694
134	0xbe06bf2f	-0.13158868
135	0xbde4ce06	-0.11172108
136	0x3db5095c	0.08839676
137	0x3da387e8	0.079849064
138	0xbc63359b	-0.013867761
139	0x3c7dd1e2	0.0154919345
140	0xbd859f6c	-0.06524548
141	0xbd17a117	-0.03701886
142	0xbd372fa6	-0.044723175
143	0x3cb15969	0.02164908
144	0x3dab5fb9	0.08367867
145	0xbde919be	-0.11381863
146	0xbd980b1f	-0.07423996
147	0x3d1b3be3	0.03789891
148	0xbd97f9a9	-0.07420666
149	0xbdc4c1d4	-0.09607282
150	0x3daea438	0.08527416
151	0xbd248765	-0.040168185
152	0xbd6660b8	-0.056244582
153	0xbd610c45	-0.05494334
154	0x3d1d3fd0	0.038390934
155	0x3c84f681	0.016230823
156	0x3d964e59	0.073391624
157	0xbb3857a6	-0.0028128414
158	0x3b412987	0.0029474215
159	0xbc8d345d	-0.017236883
160	0xbd9af573	-0.07566347
161	0xbdac6ee1	-0.08419586
162	0x3d483e5a	0.048887588
163	0xbc4356b5	-0.011922528
164	0x3d5d99d2	0.054101773
165	0xbd03c98e	-0.03217464
166	0x3d9d6894	0.07685962
167	0x3cd97fe9	0.02655025
168	0xbdb25737	-0.08708041
169	0xbd9f6a1a	-0.07783909
170	0xbddf9ab7	-0.109181814
171	0x3b98e944	0.0046664793
172	0x3dcc295b	0.099688254
173	0x3da58830	0.08082616
174	0x3d457847	0.04821041
175	0xbd443343	-0.04790045
176	0xbd95824b	-0.07300242
177	0xbdf0beb7	-0.11755126
178	0x3dd4f759	0.1039874
179	0x3caaf28b	0.020867607
180	0x3cc2cd5b	0.023779562
181	0x3d4660da	0.04843221
182	0x3de28f45	0.11062483
183	0x3c8e1945	0.017346034
184	0xbd9cf253	-0.07663407
185	0xbda24541	-0.079233654
186	0x3cd2bdec	0.025725327
187	0xbd6adb16	-0.057337843
188	0x3cdf74f7	0.027277453
189	0x3dcc9eda	0.09991236
190	0xbc4a0bd7	-0.012331924
191	0x3dbbad33	0.091638945
192	0xbbf77d2e	-0.0075527644
193	0xbc6da36a	-0.014504293
194	0x3dafaf04	0.085783035
195	0x3dd483ee	0.10376726
196	0x3d00bf6a	0.031432547
197	0x3e042eea	0.12908521
198	0x3dc56069	0.096375294
199	0x3db004f1	0.085946925
200	0x3d0334db	0.03203283
201	0xbcf73fd4	-0.030181803
202	0x3dda268d	0.10651884
203	0xbe0b677f	-0.136137
204	0xbd7610ea	-0.060074724
205	0x3dc73a7d	0.09727953
206	0x3dc181c7	0.09448581
207	0xbd501f3e	-0.050811045
208	0xbdb41dac	-0.08794722
209	0xbd08715e	-0.03331124
210	0x3cc29a5f	0.02375525
211	0xbdd64a24	-0.1046336
212	0x3d1822a1	0.0371424
213	0x3de63305	0.112402
214	0xbc75f3c7	-0.015011734
215	0xbd9a1640	-0.07523775
216	0x3cc04bc8	0.023473635
217	0xbd8b17fb	-0.06791683
218	0x3ddd8d0b	0.108179174
219	0xbd9eee76	-0.077603266
220	0x3da517ad	0.080611564
221	0x3d562fc4	0.052291647
222	0xbd17ebb1	-0.037090007
223	0x3dd77724	0.10520771
224	0xbda71fa7	-0.08160334
225	0xbdb192f7	-0.086706094
226	0xbd37cb33	-0.04487152
227	0xbd52c78b	-0.05145983
228	0xbd9d3477	-0.076760225
229	0x3b6b7e08	0.0035933275
230	0xbcce2691	-0.025164874
231	0x3d887e1d	0.06664679
232	0x3d234414	0.039859846
233	0x3da5209f	0.080628626
234	0x3c921a20	0.017834723
235	0xbe063fc7	-0.13110267
236	0xbd9e81b2	-0.07739581
237	0xbbbe9e2c	-0.0058171954
238	0xbc1f05b7	-0.009705952
239	0xbda88e01	-0.0823021
240	0x3a8e4a3e	0.0010855866
241	0xbd5942bf	-0.05304217
242	0x3d14395e	0.036187522
243	0xbb1cdab6	-0.0023934073
244	0xbd8c13be	-0.06839703
245	0x3db4968f	0.08817779
246	0x3d123e77	0.035704102
247	0x3da01ee8	0.07818395
248	0x3cac5674	0.021037318
249	0x3e06751b	0.1313061
250	0xbde0a8b5	-0.10969678
251	0x3db1ea4d	0.086872675
252	0xbc570384	-0.013123397
253	0x3c51548e	0.012776507
254	0xbdac3647	-0.0840879
255	0x3e066870	0.13125777

lstm.bias_hh_l0 f4 [256]
0	0x3dc31b48	0.09526688
1	0xbdc1d729	-0.09464867
2	0x3c282d0c	0.010264646
3	0xbcf8c032	-0.030365083
4	0xbdfb3861	-0.12266613
5	0x3d6f61f3	0.05844302
6	0x3dbcbb1a	0.09215374
7	0x3d33b633	0.04387493
8	0xbdeb5966	-0.11491661
9	0xbce580e1	-0.028015556
10	0xbc714eed	-0.01472829
11	0x3d614873	0.055000734
12	0x3d097911	0.033562724
13	0x3dcb3565	0.099222936
14	0x3dae1a53	0.08501115
15	0x3d2d0ff5	0.042251546
16	0x3dff401e	0.12463401
17	0x3d2df18c	0.042466685
18	0xbdc29a3e	-0.095020756
19	0xbd3de0fa	-0.046357132
20	0x3d129bd1	0.03579313
21	0x3df91c0b	0.12163552
22	0x3dc701e8	0.097171605
23	0x3bcaa60d	0.0061843456
24	0x3d5d9621	0.054098252
25	0xbb2d2434	-0.0026419284
26	0x3d8f9ea3	0.070126794
27	0xbd3bffed	-0.045898367
28	0xbd4bb4c9	-0.049732957
29	0xbd06fecf	-0.03295785
30	0xbcf21974	-0.029553153
31	0x3dd4c131	0.10388411
32	0x3dbd56c0	0.09245062
33	0x3dd7650b	0.10517319
34	0x3d565a34	0.05233212
35	0xbdec764b	-0.11546
36	0x3e0f4754	0.13992053
37	0xbcb57161	-0.02214879
38	0xbc074c04	-0.00825787
39	0xbcad95d2	-0.021189604
40	0xbd98946a	-0.07450183
41	0xbcb72124	-0.02235467
42	0xbdf8b7b6	-0.12144415
43	0xbde70977	-0.11281102
44	0xbe137a1f	-0.14402054
45	0xbbb8b9ce	-0.005637384
46	0x3de6d2f5	0.112707056
47	0x3cdc386f	0.026882378
48	0x3e12b4e7	0.14326821
49	0x3d5860d6	0.052826725
50	0xbda79640	-0.08182955
51	0x3cc9e3c1	0.024644734
52	0x3db5adf8	0.088710725
53	0xbdb8ebf8	-0.090293825
54	0x3ca01bdc	0.019544534
55	0xbd6d5460	-0.057941794
56	0x3de5a530	0.11213148
57	0xbd0db5e2	-0.034597285
58	0xbd495507	-0.049153354
59	0xbd1c16f6	-0.038107835
60	0x3ddd51bd	0.10806606
61	0xbce6563c	-0.028117292
62	0x3d9b9a47	0.075977854
63	0x3d6721ca	0.056428708
64	0x3d3e051b	0.046391588
65	0xbd96e90e	-0.073686704
66	0xbdda662e	-0.106640205
67	0x3e0a7f0e	0.1352503
68	0xbdebfa1c	-0.11522314
69	0xbce34e2d	-0.027747238
70	0xbd102b37	-0.035197463
71	0x3dca4aa9	0.098775215
72	0x3ddbf29c	0.107396334
73	0x3c062fa8	0.008190073
74	0x3c241697	0.010015151
75	0x3d79d34b	0.06099252
76	0xbd48f3f4	-0.049060777
77	0xbc8a5140	-0.016884446
78	0xbc0a728e	-0.0084501635
79	0xbcbbe3e0	-0.022935808
80	0x3c31c544	0.010850254
81	0x3d898e59	0.06716604
82	0xbd3cb300	-0.046069145
83	0x3d5d1ec7	0.05398443
84	0x3e1f9f7a	0.15588179
85	0x3d808481	0.06275273
86	0x3d117b5d	0.03551804
87	0xbdabb997	-0.08385008
88	0xbc5ee2ae	-0.013603849
89	0xbd997669	-0.07493288
90	0x3dd20b73	0.1025609
91	0x3dcacf89	0.099028654
92	0xbd0c4442	-0.034244783
93	0xbe092889	-0.13394369
94	0xbced0706	-0.028934013
95	0x3d9bb781	0.0760336
96	0x3e0130cf	0.12616275
97	0x3da45047	0.08023124
98	0xbdfafb20	-0.122549295
99	0x3d152ded	0.03642075
100	0xbd1588b5	-0.036507327
101	0x3de37a81	0.1110735
102	0x3d7fb8e9	0.062432203
103	0xbb397d7a	-0.002830355
104	0xbc100153	-0.008789378
105	0x3d2cd5d2	0.042196102
106	0xbcd60aa2	-0.026128117
107	0xbdd6ce1c	-0.10488531
108	0x3c50c471	0.012742148
109	0xbd0a79ab	-0.033807438
110	0xbd95dcc1	-0.07317496
111	0xbd9c025b	-0.07617637
112	0xbd645d6d	-0.05575316
113	0x3d707ec3	0.05871464
114	0xbd0fde0d	-0.035123874
115	0x3dc074ad	0.09397254
116	0x3bd55975	0.0065109082
117	0xbde30f58	-0.11086911
118	0x3d2ad6a0	0.04170859
119	0x3e1ad81a	0.15121499
120	0xbddec232	-0.108768836
121	0x3c51b094	0.012798447
122	0x3c10e4e4	0.008843634
123	0x3ccea659	0.025225805
124	0x3dd75f3c	0.105162114
125	0x3d8fef70	0.07028091
126	0x3d9b31e7	0.075778775
127	0xbd6382c2	-0.055544622
128	0xbd8ab901	-0.06773568
129	0xbd277e12	-0.040891714
130	0xbdf470b1	-0.11935557
131	0xbd3a7fd2	-0.045532055
132	0xbdadd4fa	-0.08487888
133	0xbc26c496	-0.010178706
134	0xbda36322	-0.079778925
135	0x3dff1040	0.12454271
136	0x3e01aeb3	0.12664299
137	0x3c5af7a3	0.013364705
138	0xbdd6596b	-0.10466274
139	0x3d5ba404	0.053623214
140	0xbdfa67e3	-0.12226846
141	0x3dc49ea6	0.09600572
142	0x3dd5687c	0.104203194
143	0xbda4f7fa	-0.0805511
144	0x3b0911a6	0.002091506
145	0xbdb83b44	-0.08995679
146	0x3dabd577	0.083903246
147	0x3c8a11a5	0.016854117
148	0x3d0da540	0.034581423
149	0x3d658a29	0.056039963
150	0x3c7f5114	0.015583295
151	0xbdd245e7	-0.10267239
152	0xbd52af10	-0.051436484
153	0x3d526e57	0.05137476
154	0xbd3f87dc	-0.046760425
155	0xbd95e18f	-0.073184125
156	0x3d25e8db	0.04050527
157	0x3ca0a57b	0.019610157
158	0xbd96e082	-0.0736704
159	0x3d452a4e	0.048136048
160	0x3dbc953f	0.09208154
161	0xbd4f6345	-0.05063178
162	0x3da11a2e	0.078663215
163	0xbd4d010a	-0.05004982
164	0xbcee6488	-0.029100671
165	0xbdc5de8f	-0.0966159
166	0xbd9e938e	-0.077429876
167	0xbd444836	-0.04792043
168	0x3dc957b7	0.098311834
169	0x3d4cb063	0.049972903
170	0xbdcc48eb	-0.099748455
171	0x3c81f6b9	0.015864717
172	0x3dcba597	0.09943693
173	0xbd9da284	-0.07697013
174	0xbd0a65c9	-0.033788476
175	0x3d1091d9	0.03529534
176	0x3e1271ad	0.14301176
177	0xbd3a403f	-0.045471426
178	0x3da1c6b7	0.0789923
179	0xbd4342cc	-0.047671124
180	0xbd01dced	-0.031704832
181	0xbd8a7181	-0.067599304
182	0x3d63aaf3	0.05558295
183	0xbdbed7ab	-0.09318479
184	0xbdc98b87	-0.09841066
185	0x3dc03240	0.093845844
186	0xbe047475	-0.1293505
187	0x3d6d348f	0.057911452
188	0x3ce40608	0.027834907
189	0x3d8abf89	0.06774814
190	0xba61aa4f	-0.0008608447
191	0xbd784b71	-0.06061882
192	0xbcbe2de7	-0.023215247
193	0x3a986207	0.0011625894
194	0xbd27ce13	-0.040968012
195	0xbdeb669b	-0.1149418
196	0x3d9bdb21	0.07610155
197	0xbcbe4a4f	-0.023228792
198	0x3dc22a47	0.0948072
199	0x3defd0d7	0.11709755
200	0x3de3cb02	0.11122705
201	0xbd0c62df	-0.03427398
202	0x3dcb9bef	0.09941851
203	0x3c5033a0	0.012707621
204	0xbd9caddc	-0.076503485
205	0xbcf0e07d	-0.02940392
206	0x3d9b99ff	0.07597732
207	0x3e1b0838	0.15139854
208	0x3d08a001	0.033355717
209	0xbddc21e8	-0.107486546
210	0x3d530944	0.05152251
211	0x3d8d178c	0.06889257
212	0x3d8e2747	0.06941085
213	0x3d848a40	0.064716816
214	0xbd4eeccc	-0.050518796
215	0x3c41095b	0.011782016
216	0xbc891da6	-0.01673777
217	0xbd1b00fa	-0.03784273
218	0x3d96a2fe	0.07355307
219	0xbbce52ab	-0.006296476
220	0x3cf8e874	0.03038428
221	0x3cf52d9e	0.029928979
222	0xbda6008c	-0.08105573
223	0xbdd713ba	-0.105018094
224	0xbc6b0afe	-0.014345882
225	0x3d24d2f5	0.040240247
226	0x3df59e4c	0.11993083
227	0x3d9486df	0.07252287
228	0x3e0ab6ae	0.1354625
229	0xbd2f3da7	-0.042783406
230	0xbbda1598	-0.006655406
231	0x3d7722f5	0.060336072
232	0x3dff8a0c	0.12477502
233	0x3dc3f385	0.09567932
234	0xbc158017	-0.009124777
235	0xbabba368	-0.0014315667
236	0xbd8f8908	-0.070085585
237	0xbd4600e0	-0.04834068
238	0xbdb2840d	-0.08716593
239	0xbc93c8a8	-0.018040016
240	0xbd2b17ab	-0.04177062
241	0xbd2b76c4	-0.04186131
242	0x3d32ee79	0.043684456
243	0x3e1b1e42	0.15148261
244	0xbcb5f9c5	-0.022213826
245	0xbdc4d29f	-0.09610485
246	0xbd685d65	-0.056729693
247	0x3dc08e78	0.09402174
248	0x3df59dae	0.11992966
249	0xbb5a6e31	-0.003332984
250	0xbd608a0b	-0.054819148
251	0x3d695c91	0.056973044
252	0x3e0c9b26	0.1373106
253	0xbdafb202	-0.08578874
254	0xbbb2a422	-0.005451695
255	0x3de9d316	0.114172146

lstm.weight_ih_l1 f4 [256, 64]
0	0x3dde016b	0.10840114
1	0x3d048ea4	0.032362595
2	0x3d8d394d	0.06895695
3	0xbd48c8e9	-0.049019728
4	0xb9179449	-0.00014455723
5	0xbd743f95	-0.05963095
6	0xbe1c808a	-0.15283409
7	0xbaaf3554	-0.0013367333
8	0x3d821f08	0.06353575
9	0xbd0ee25c	-0.034883842
10	0xbd821bfc	-0.06352994
11	0xba83c947	-0.0010054492
12	0xbe1f9a54	-0.15586215
13	0x3c11277e	0.008859513
14	0xbdbca380	-0.09210873
15	0xbc5f8629	-0.013642826
16	0xbc29eb2f	-0.010371014
17	0xbddae9e9	-0.10689146
18	0xbcb33f5b	-0.021880796
19	0x3d160c5e	0.036632888
20	0xbd6d8a7c	-0.057993397
21	0xbda354c9	-0.07975156
22	0x3ceed4e5	0.02915425
23	0xbc3f4f4c	-0.011676621
24	0xbdad3fd0	-0.08459437
25	0xbd46053d	-0.04834484
26	0x3ddc80c2	0.10766746
27	0xbd7618a9	-0.06008211
28	0x3d96d975	0.073656954
29	0x3daeffee	0.085449085
30	0xbcc25ce9	-0.023725944
31	0x3d81e6c6	0.06342845
32	0x3b7dba82	0.0038715904
33	0x3dc30f42	0.095243946
34	0xbd0112b5	-0.03151198
35	0xbda5755f	-0.080790274
36	0x3d93028b	0.071782194
37	0x3cd546a5	0.026034663
38	0xbbcf0650	-0.006317891
39	0xbe26746a	-0.16255346
40	0xbcb939f5	-0.022610644
41	0x3d9e60d6	0.07733314
42	0xbd511e80	-0.051054478
43	0xbdabefb7	-0.08395331
44	0x3e1444f1	0.14479424
45	0xbd521cf8	-0.051297158
46	0x3d59eaa3	0.053202283
47	0x3ddbc8e1	0.10731674
48	0xbe09330a	-0.13398376
49	0xbcf76ed5	-0.030204216
50	0xbdb4e96e	-0.08833586
51	0x3d95f3da	0.073219016
52	0xbe2fbcd3	-0.17161874
53	0x3d65629f	0.056002256
54	0x3de1b09f	0.11020016
55	0x3d37987e	0.044823162
56	0x3d8d11d0	0.06888163
57	0x3c8ec07f	0.017425774
58	0x3e0a4798	0.13503873
59	0x3da34ffb	0.079742394
60	0x3df85ec9	0.12127454
61	0xbded5496	-0.11588399
62	0xbe2c7885	-0.1684285
63	0xbdccc28a	-0.09998043
64	0xbe1ff767	-0.1562172
65	0x3de6ee74	0.1127595
66	0x3d139bd0	0.036037266
67	0x3d339bdc	0.04384981
68	0x3db1d35d	0.086828925
69	0x3e01376b	0.12618797
70	0xbe115656	-0.14193091
71	0xbd0b19f0	-0.033960283
72	0xbde15ba6	-0.11003809
73	0x3e00a421	0.1256261
74	0xbd9d550d	-0.07682238
75	0x3db2dcb5	0.08733503
76	0x383e62a9	4.5391414e-05
77	0x3d44cf18	0.048049062
78	0x3d84784b	0.064682566
79	0xbcd02e1b	-0.02541261
80	0xbd963d2a	-0.07335885
81	0x3def2d06	0.116785094
82	0xbd502f18	-0.050826162
83	0x3e117d58	0.14207971
84	0xbda69b01	-0.081350334
85	0xbe012759	-0.12612666
86	0xbdd0d223	-0.101963304
87	0x3ca0b2e8	0.01961656
88	0xba4b075a	-0.0007744931
89	0xbe3ca589	-0.18422522
90	0x3e4b1b46	0.19834623
91	0xbe35c1d3	-0.1774972
92	0xbda9d333	-0.08292236
93	0xbc031df3	-0.008002746
94	0x3d011aaa	0.03151957
95	0xbda7f48f	-0.08200943
96	0x3de31a5a	0.110890105
97	0xbbbad5ac	-0.005701741
98	0x3c56bb7c	0.013106223
99	0x3c51bd87	0.0128015345
100	0x38ba6654	8.888231e-05
101	0xbd8bfbe8	-0.06835157
102	0xbd75b1f1	-0.05998415
103	0x3c8db621	0.01729876
104	0x3c7828af	0.0151464185
105	0xbdf3ebe7	-0.11910229
106	0x3e33a482	0.17543224
107	0xbe46dea6	-0.19420871
108	0xbccc3a33	-0.024930095
109	0xbc833ef1	-0.016021224
110	0xbd89ce49	-0.06728799
111	0x3df1a4dc	0.117990226
112	0xbe1a335c	-0.15058655
113	0x3de3299b	0.1109192
114	0xbd930462	-0.0717857
115	0x3aa755bf	0.0012766643
116	0xbc8bcb04	-0.017064579
117	0x3e318216	0.1733478
118	0xbcda51d8	-0.026650354
119	0xbd0de233	-0.03463955
120	0xbd0dd8d5	-0.034630615
121	0x3cfff423	0.031244343
122	0x3dc61c2a	0.096733406
123	0x3d94ee22	0.07271983
124	0x3da2ebac	0.07955107
125	0x3d78235f	0.060580608
126	0x3d330dca	0.043714322
127	0xbe0dd325	-0.13850076
128	0x3e176482	0.14784434
129	0xbc872566	-0.016497325
130	0x3c188b8d	0.009310615
131	0x3cfe410c	0.031036876
132	0x3dd5083d	0.10401962
133	0xbdb3c2d1	-0.08777393
134	0xbd889b3f	-0.06670236
135	0xbd0b6bb0	-0.034038246
136	0xbc928870	-0.017887324
137	0xbc8f9efb	-0.017531862
138	0xbda5174b	-0.080610834
139	0xbdab1c19	-0.083549686
140	0x3dc35832	0.09538306
141	0xbd3570c3	-0.04429699
142	0x3d25daf4	0.040492013
143	0x3dffd8bf	0.12492513
144	0xbe1bc620	-0.15212297
145	0xbdfa495b	-0.12221023
146	0xbdbff2e5	-0.093725
147	0x3d79c9f1	0.060983602
148	0xbdf403a7	-0.11914759
149	0x3d119b73	0.03554864
150	0x3d9c62cf	0.07636034
151	0xbdda0813	-0.10646071
152	0xbd71b5a2	-0.05901111
153	0xbd517350	-0.05113536
154	0x3d48880c	0.04895787
155	0xbe06ffac	-0.13183469
156	0xbde0dd00	-0.109796524
157	0xbddb0af2	-0.10695447
158	0xbc15bb33	-0.00913887
159	0xbc26729f	-0.010159164
160	0xbd9739bd	-0.073840596
161	0x3de57038	0.11203045
162	0x3e1d8794	0.1538375
163	0x3cd5d596	0.026102822
164	0xbcb3a16c	-0.021927558
165	0x3ddae7a1	0.10688711
166	0x3de35a64	0.11101225
167	0x3d83355b	0.06406661
168	0xbac25e42	-0.0014829116
169	0xbd15e36e	-0.036593847
170	0xbd5b428c	-0.05353026
171	0x3c826ad3	0.015920078
172	0x3df108e4	0.11769274
173	0xbdb288f3	-0.08717527
174	0xbdf6008d	-0.12011824
175	0x3df54f1f	0.11977982
176	0xbe0a0063	-0.1347671
177	0x3c1a0b70	0.009402141
178	0xbe135157	-0.14386497
179	0xbdf469a7	-0.11934214
180	0x3cace545	0.021105418
181	0xbd486694	-0.04892595
182	0xbd1df1b8	-0.0385606
183	0x3d4b1333	0.049578857
184	0xbc8b625a	-0.017014671
185	0xbd1f730e	-0.038928084
186	0x3c38abb7	0.011271409
187	0xbdc81d8d	-0.09771261
188	0xbcfb0ebf	-0.03064668
189	0xbd53bc4f	-0.051693257
190	0xbd6c4c17	-0.057689752
191	0x3cacfd20	0.021116793
192	0x3d43e1a8	0.047822624
193	0x3d51e7d4	0.05124648
194	0x3c5ec170	0.013595924
195	0xbccdacff	-0.025106905
196	0xbd559193	-0.052140784
197	0x3d84b903	0.06480601
198	0xbdffb255	-0.12485186
199	0xbe019f3c	-0.126584
200	0xbdd77819	-0.10520954
201	0xbd8e45c6	-0.06946902
202	0xbdb670e3	-0.0890825
203	0x3db7e5fa	0.089794114
204	0xbcb550da	-0.02213328
205	0xbc93d8a5	-0.01804764
206	0x3d022061	0.03176916
207	0x3d94decb	0.07269057
208	0x3daf3cb9	0.08556504
209	0x3c2d8384	0.010590438
210	0x3d2e6da7	0.04258504
211	0x3de055a4	0.10953835
212	0xbe0a8828	-0.13528502
213	0xbe00985e	-0.12558123
214	0xbe207820	-0.15670824
215	0x3df8ef91	0.12155069
216	0x3cced17f	0.02524638
217	0xbca79e5f	-0.02046126
218	0xbdbf13f0	-0.09329975
219	0xbd4105b9	-0.0471246
220	0xbd87eea6	-0.066373155
221	0xbc73a13e	-0.014869986
222	0xbb9374a9	-0.004499991
223	0x3dfcc59f	0.12342381
224	0x3e0af94b	0.1357166
225	0x3d97a071	0.07403649
226	0xbd4d239d	-0.05008279
227	0x3d08f994	0.03344114
228	0x3e0dc223	0.13843589
229	0xbce8f88f	-0.028438834
230	0xbd821372	-0.06351365
231	0xbe2ab61b	-0.1667103
232	0xbdadffe2	-0.084960714
233	0xbc2df0af	-0.0106164655
234	0x3d3e0281	0.046389107
235	0xbd8a82ca	-0.06763227
236	0xbc371b65	-0.011175965
237	0x3ce97390	0.028497487
238	0x3c85019d	0.01623612
239	0x3e0f4c55	0.13993962
240	0x3da86a6b	0.082234226
241	0xbd964003	-0.07336428
242	0x3cca0c3e	0.02466404
243	0xbe11a2cf	-0.14222263
244	0x3c0aba87	0.008467323
245	0x3db3772b	0.08762964
246	0x3cbc57c8	0.022991076
247	0x3d92f100	0.07174873
248	0x3d88dddc	0.06682941
249	0x3db676cf	0.0890938
250	0x3e26e0c6	0.16296682
251	0xbd6973b3	-0.056995105
252	0xbd932f66	-0.07186775
253	0xbd4ce4bb	-0.050022822
254	0xbcdb45af	-0.026766626
255	0xbcb034b1	-0.0215095

lstm.weight_hh_l1 f4 [256, 64]
0	0x3e1adc85	0.15123184
1	0x3da63946	0.08116393
2	0xbdd00a92	-0.10158266
3	0xbdaa3d7e	-0.0831251
4	0xbd5bcf59	-0.05366454
5	0xbdbf33d3	-0.093360566
6	0xbdadccee	-0.08486353
7	0x3dc783a6	0.09741907
8	0x3d8caaee	0.0686854
9	0xbd705532	-0.058675
10	0x3df60844	0.12013295
11	0xbc8a0f87	-0.016853107
12	0x3dee785c	0.116440505
13	0xbc35670e	-0.011071933
14	0xbc1f33ea	-0.009716967
15	0x3b5f8b68	0.0034110192
16	0x3d3c7191	0.046006743
17	0xbd3f3dd4	-0.046689823
18	0x3c98f898	0.018673226
19	0xbcece82c	-0.028919302
20	0xbdf016b9	-0.11723084
21	0x3e0a3034	0.1349495
22	0x3e1159e5	0.14194448
23	0x3d8e3d62	0.069453016
24	0xbd21d01d	-0.039505113
25	0xbd08cf1b	-0.033400636
26	0xbce34049	-0.027740614
27	0x3d2bb3c4	0.041919485
28	0xbdb32209	-0.08746726
29	0x3d182da4	0.0371529
30	0xbe278672	-0.1635988
31	0xbe026f52	-0.12737778
32	0x3dc803db	0.0976636
33	0xbdb7d154	-0.08975473
34	0x3d0f2e56	0.0349563
35	0xbe125af8	-0.14292514
36	0xbd0dec1c	-0.034649
37	0x3d5bbac8	0.053644925
38	0xbd232017	-0.039825525
39	0xbbbe49bb	-0.005807129
40	0x3d412134	0.047150806
41	0xbd48ce84	-0.049025074
42	0xbd9f8f06	-0.077909514
43	0xbb833925	-0.004004615
44	0x3d65b169	0.056077395
45	0x3db7fb95	0.08983532
46	0x3bd430f2	0.0064755613
47	0x3d7b19fa	0.06130407
48	0xbdd30e64	-0.10305479
49	0x3dc76635	0.09736291
50	0xbd79e9e3	-0.061014067
51	0x3d4b9be2	0.04970921
52	0xbdf478ab	-0.11937078
53	0x3d7842ac	0.06061046
54	0x3d97bb9c	0.074088305
55	0x3d280852	0.04102356
56	0xbdbf67d0	-0.093459725
57	0xbe2ba07d	-0.1676044
58	0x3be4d6e9	0.006983627
59	0xbdbc8af2	-0.09206189
60	0xbdc8db8c	-0.098075
61	0xbdf47915	-0.11937157
62	0x3d841416	0.064491436
63	0x3e120553	0.14259844
64	0x3e2a1258	0.1660856
65	0xbd3e2d87	-0.046430137
66	0x3d91bdc8	0.07116276
67	0x3d7398df	0.05947196
68	0xbdc198ad	-0.09452949
69	0x3ce4b852	0.027919922
70	0x3e0540c1	0.13012983
71	0x3dccabbe	0.09993695
72	0x3d881804	0.066452056
73	0xbc03c3e5	-0.00804231
74	0xba50f633	-0.0007971257
75	0xbe0c9d51	-0.13731886
76	0x3d3ad40b	0.045612376
77	0xbd865806	-0.06559758
78	0xbd698997	-0.05701598
79	0x3de79260	0.11307216
80	0xbd47394d	-0.04863863
81	0xbca7f3de	-0.020502027
82	0x3d0b149f	0.033955213
83	0x3c11457a	0.008866662
84	0xbe1b7e42	-0.15184882
85	0x3d2c8f4d	0.04212885
86	0xbd89b23a	-0.06723447
87	0x39dc4ba2	0.0004201802
88	0x3df4c0a1	0.119508035
89	0xbd850ce4	-0.06496599
90	0x3e0efb71	0.13963105
91	0x3d233f46	0.039855264
92	0xbe168f05	-0.14702995
93	0xbe02215d	-0.1270804
94	0xbe111bde	-0.14170787
95	0xbbffb3c3	-0.0078034117
96	0x3e1c957f	0.15291403
97	0xbda281f5	-0.079349436
98	0xbda1f4fe	-0.07908057
99	0xbd7ae281	-0.061251167
100	0xbd94347d	-0.07236574
101	0xbd22a419	-0.039707277
102	0x3d8a5746	0.06754927
103	0xbd0c1c48	-0.03420666
104	0x3e04c675	0.1296633
105	0xbd9fdc75	-0.07805721
106	0x3e0ce67a	0.13759795
107	0xbdbda3f4	-0.09259787
108	0xbcb05559	-0.021525072
109	0x3e03d2b7	0.1287335
110	0xbd48319c	-0.048875436
111	0x3da8e96b	0.08247646
112	0xbd77f257	-0.060533848
113	0xbe23adbc	-0.15984243
114	0x3dcc7314	0.09982887
115	0x3c01d44d	0.007924152
116	0x3d0d3552	0.03447468
117	0x3e292939	0.16519631
118	0xbd3be371	-0.045871202
119	0xbe0d52d4	-0.13801128
120	0xbda16aaa	-0.07881673
121	0x3d18d9c1	0.03731704
122	0x3e331284	0.17487532
123	0xbd13b37d	-0.036059845
124	0xbd97e563	-0.07416799
125	0xbdce051c	-0.10059568
126	0xbdb8c9f2	-0.09022893
127	0x3e0380e6	0.1284214
128	0xbd69789c	-0.056999788
129	0x3e017d8b	0.12645547
130	0x3d99f34a	0.07517107
131	0x3c1a1c3b	0.009406145
132	0xbdeab5c1	-0.11460448
133	0xbc4c4f60	-0.012470096
134	0xbd7c5f07	-0.061614063
135	0xbda62d96	-0.081141636
136	0x3cee8dd9	0.029120373
137	0x3e06bba2	0.13157514
138	0x3d72cfae	0.05928009
139	0x3d986a3a	0.07442136
140	0xbde7b95f	-0.113146536
141	0x3bbebb9c	0.0058207046
142	0x3d50cedd	0.05097853
143	0x3ddbb7e8	0.10728437
144	0xbd9b844b	-0.07593592
145	0xbd0c2884	-0.034218326
146	0x3d9d298c	0.0767394
147	0xbe100268	-0.14063418
148	0x3cc28dcc	0.023749255
149	0x3d6c2bab	0.057658833
150	0x3e1c06be	0.15236947
151	0xbd4575b6	-0.04820796
152	0xbc5dc5ba	-0.013535911
153	0xba0cc63d	-0.0005370116
154	0x3e0082cb	0.12549894
155	0x3d23abb3	0.039958667
156	0xbded8f76	-0.115996286
157	0xbcbe97aa	-0.023265678
158	0x3c5671ce	0.013088657
159	0x3da4a1e4	0.08038691
160	0x3d90d6f9	0.07072253
161	0x3c5d2f96	0.013500115
162	0xbdf5c148	-0.11999756
163	0xbda3876c	-0.07984814
164	0x3df875c7	0.12131839
165	0xbd338b3d	-0.04383396
166	0xbd85a076	-0.06524746
167	0xbd073b5a	-0.033015586
168	0xbdbf659c	-0.09345552
169	0x3d26d016	0.04072579
170	0x3e3a23f3	0.18177776
171	0x3c8bd432	0.017068956
172	0xbc1894b4	-0.009312797
173	0xbd35a6da	-0.044348575
174	0x3e229d5e	0.15880343
175	0x3dc5c3d4	0.09656492
176	0x3da3564a	0.07975443
177	0x3cd66752	0.026172314
178	0xbc33d79d	-0.010976699
179	0xbd0874c7	-0.033314493
180	0x3d9c00bb	0.07617327
181	0x3b57b218	0.0032912549
182	0xbd801065	-0.06253127
183	0xbce926c6	-0.028460871
184	0xbdc1521c	-0.09439489
185	0xbcc91d53	-0.024550116
186	0x3d843a95	0.06456486
187	0xbd97d9a7	-0.07414561
188	0xbcacac37	-0.021078212
189	0xbbc3e931	-0.0059787263
190	0xbb8c50ae	-0.0042820787
191	0xbdeb0d4e	-0.11477147
192	0xbdaca988	-0.08430773
193	0xbd8bc42e	-0.06824528
194	0x3c3f787d	0.0116864415
195	0x3db58bd5	0.088645615
196	0xbdb8b05a	-0.090180114
197	0xbdee1dc3	-0.1162677
198	0xbcc64b22	-0.024205748
199	0xbc65d005	-0.0140266465
200	0xbd2ea644	-0.042639032
201	0xbdc1876a	-0.09449656
202	0x3e0b4bf1	0.13603188
203	0xbdfe743e	-0.12424515
204	0x3e0b46a6	0.13601169
205	0xbd0d3fa0	-0.034484506
206	0x3dc68d88	0.09694964
207	0x3d011fb6	0.031524383
208	0x3dd6f766	0.10496406
209	0xbd91fc17	-0.071281604
210	0xbc9f3a63	-0.01943702
211	0x3e1f13c8	0.1553489
212	0xbdd244b6	-0.10267012
213	0xbdddac3b	-0.10823866
214	0x3bd0e826	0.0063753305
215	0xbd231004	-0.039810196
216	0xbcc97d87	-0.024595989
217	0xbd14cd10	-0.036328375
218	0x3dc038c5	0.09385828
219	0x3c3945f7	0.011308185
220	0xbd9afa61	-0.07567287
221	0xbe13bbc4	-0.14427096
222	0xbd908410	-0.07056439
223	0xbd7d45a9	-0.06183401
224	0x3ca82bad	0.020528639
225	0xbd869d8f	-0.06573021
226	0xbcac9556	-0.021067303
227	0xbdcf5ed1	-0.10125507
228	0x3dbba74c	0.09162769
229	0x3b97fe68	0.004638482
230	0xbd0b8f86	-0.03407242
231	0xbad286c1	-0.0016061888
232	0x3e0fbecb	0.14037625
233	0xbe04d552	-0.12972
234	0x3de7422a	0.11291917
235	0x3bb8fe03	0.005645515
236	0xbd7bc0d7	-0.061463203
237	0x3d666952	0.056252785
238	0x3e11e209	0.14246382
239	0x3dcd9a2a	0.1003917
240	0xbe2d6111	-0.16931559
241	0xbdcbcc39	-0.09951062
242	0xbc0ca3ce	-0.008583976
243	0xbbda04f6	-0.0066534234
244	0xbd490cd3	-0.049084496
245	0x3e07c4d3	0.13258676
246	0xbdf87ecd	-0.1213356
247	0xbd9540a9	-0.072877236
248	0x3db3a30d	0.08771334
249	0x3d73f3ae	0.059558563
250	0x3e0bffc7	0.1367179
251	0xbd96a586	-0.0735579
252	0x3d2e57f4	0.042564347
253	0x3cf4ad3c	0.02986776
254	0x3caeb294	0.021325387
255	0x3e0d00a3	0.13769774

lstm.bias_ih_l1 f4 [256]
0	0x3e11941e	0.14216658
1	0xbc7a793b	-0.015287693
2	0x3e014244	0.12622935
3	0x3d0682ec	0.0328397
4	0xbde7cb15	-0.11318032
5	0x3d8d1b73	0.06890001
6	0xbd4547ea	-0.048164286
7	0x3cbc3e59	0.022978948
8	0x3dbdf2e0	0.0927484
9	0xbce67d9e	-0.02813607
10	0x3dc7e059	0.09759588
11	0xbdd24b42	-0.102682605
12	0x3de945a6	0.113902375
13	0x3ced7e5b	0.028990915
14	0x3de783a3	0.113044046
15	0x3b27d2ff	0.0025607941
16	0x3db3bb95	0.08776013
17	0x3dc6b9d6	0.09703414
18	0xbc943411	-0.018091233
19	0x3e4270f3	0.18988399
20	0xbd8bd9dd	-0.068286635
21	0xbd6988cb	-0.05701522
22	0xbc58929f	-0.013218551
23	0xbd4c7e3e	-0.04992508
24	0x3ca6c5b6	0.020357948
25	0x3e150a2f	0.14554666
26	0xbce93b4d	-0.02847066
27	0xbd97bad2	-0.0740868
28	0xbbb5faf5	-0.005553598
29	0x3ddecda3	0.10879066
30	0x3dd76e01	0.105190285
31	0x3cf5e68a	0.030017156
32	0xbdc907cd	-0.09815941
33	0xbdc7258e	-0.0972396
34	0x3d5330e3	0.051560294
35	0xbd9ce2ea	-0.07660468
36	0x3d7d63df	0.061862823
37	0x3e136a13	0.14395933
38	0xbbeb55a5	-0.0071818405
39	0x3e0f434d	0.13990517
40	0x3c9675a2	0.018366639
41	0xbd16a680	-0.03677988
42	0xbdbd928d	-0.09256468
43	0x3d2f6a30	0.042825878
44	0x3d7c05ef	0.061529096
45	0xbba2a0f3	-0.0049630343
46	0xbd7f8ee5	-0.062392134
47	0xbb32147c	-0.0027172854
48	0x3c1f1d68	0.009711601
49	0x3d50cb6f	0.05097526
50	0x3d056e86	0.032576106
51	0x3bd416cc	0.006472444
52	0x3d6cfbd2	0.057857342
53	0x3c77549f	0.015095859
54	0xbca63737	-0.02029
55	0x3db4fc66	0.08837204
56	0x3cea9832	0.028637026
57	0xba73b47d	-0.0009296609
58	0xbc34f6cd	-0.01104517
59	0x3dc5a1c1	0.09649993
60	0x3cef118f	0.029183177
61	0xbda98492	-0.08277239
62	0x3dc3787a	0.095444635
63	0x3df77c32	0.12084235
64	0x3dd5b271	0.104344256
65	0xbd93d4f5	-0.07218353
66	0xbcdfc2bb	-0.027314534
67	0xbcaaa1f3	-0.020829177
68	0x3db51bf9	0.08843226
69	0x3d3ff3ad	0.046863247
70	0xbd11014a	-0.03540162
71	0xbcb5c6b8	-0.022189483
72	0xbd331b52	-0.043727227
73	0x3c86e368	0.016465858
74	0x3d3de50b	0.04636101
75	0xbd6a05e3	-0.05713452
76	0x3cd648b6	0.026157718
77	0xbc345106	-0.011005646
78	0x3d8b7da3	0.06811073
79	0xbd865508	-0.06559187
80	0xba354cf9	-0.0006916072
81	0x3c205f51	0.00978835
82	0xbd06c264	-0.03290023
83	0x3d683bad	0.056697536
84	0x3dd0ed6e	0.10201536
85	0x3dd83b3c	0.10558173
86	0xbd877d89	-0.06615741
87	0x3df6861c	0.12037298
88	0xbccbe1e9	-0.024887996
89	0x3e0c0574	0.13673955
90	0xbd9eeefd	-0.07760427
91	0x3cfd7cf8	0.030943379
92	0x3e09005b	0.13379042
93	0xbcece1d2	-0.028916273
94	0xbd1fda6c	-0.039026663
95	0x3d449fd3	0.048003983
96	0x3cdabaff	0.026700495
97	0x3cc520e6	0.024063539
98	0xbcd162aa	-0.025559742
99	0x3dbf98fd	0.09355352
100	0x3d95de13	0.07317748
101	0xbce94c5d	-0.028478796
102	0xbc6015a1	-0.013677032
103	0xbd512467	-0.051060107
104	0xbda29fff	-0.07940673
105	0x3dae12d5	0.08499686
106	0xbd37d69f	-0.044882413
107	0x3db2caa9	0.087300606
108	0xbdaf929d	-0.08572886
109	0x3d05a7a7	0.03263059
110	0xbcc27dfc	-0.023741715
111	0x3c95a673	0.018267846
112	0x3d438f93	0.047744345
113	0x3d884655	0.0665404
114	0xbddfa553	-0.10920205
115	0x3e09edb7	0.13469587
116	0xbd0f628a	-0.035006084
117	0x3e0393f2	0.12849405
118	0x3daa0ca9	0.08303196
119	0x3d803706	0.06260495
120	0x3df59e79	0.11993117
121	0xbd84a8ca	-0.064775065
122	0x3d9a48f2	0.075334445
123	0x3db0cb74	0.086325556
124	0x3dcd6fbb	0.100310765
125	0x3cc59020	0.024116576
126	0x3e0ee123	0.1395307
127	0x3da2f001	0.07955933
128	0xbdaf2378	-0.08551687
129	0xbd21a172	-0.039460607
130	0xbd9a8e25	-0.07546643
131	0xb977502c	-0.00023585622
132	0xbd2fcabb	-0.04291795
133	0xbcb1dc43	-0.021711474
134	0x3d08aae0	0.033366084
135	0x3c56a336	0.013100436
136	0xbde5be17	-0.112178974
137	0x3d3ddb9e	0.04635202
138	0x3dc455a6	0.09586649
139	0xbcfefa3c	-0.03112518
140	0x3d764c4b	0.060131352
141	0x37f4c278	2.9177623e-05
142	0xbd08929b	-0.03334294
143	0x3c27b317	0.010235569
144	0xbd31b755	-0.04338773
145	0x3d8f5a6b	0.06999668
146	0xbdc66198	-0.09686583
147	0xba82cade	-0.0009978672
148	0x3d6acb84	0.057322994
149	0xbdea7890	-0.11448777
150	0xbdd1a67f	-0.10236835
151	0xbdd18841	-0.102310665
152	0x3dbf80c7	0.09350734
153	0xbc6fe36a	-0.014641622
154	0xbdc65990	-0.096850514
155	0xbc82b33a	-0.015954603
156	0xbdba2f09	-0.090910025
157	0x3d918a93	0.07106509
158	0x3cb54f23	0.022132462
159	0xbdc1d6eb	-0.094648205
160	0x3d9a24b4	0.07526532
161	0x3dfeecc6	0.12447505
162	0x3dd06bd9	0.1017682
163	0xbd9002d2	-0.07031788
164	0x3ca8c4a5	0.02060158
165	0x3d85e78d	0.065383054
166	0x3db6bfe4	0.08923319
167	0x3cec4955	0.028843561
168	0x3de268d4	0.11055151
169	0x3d7642c3	0.060122263
170	0x3dce9ff7	0.100891046
171	0xbcd8d385	-0.026468048
172	0xbdf9e5c5	-0.12202028
173	0x3d9fe88f	0.07808029
174	0x3d173dbe	0.036924116
175	0x3dbb083b	0.09132429
176	0xbd83ad3b	-0.064295255
177	0x3c9eff97	0.019408984
178	0x3d90cb00	0.07069969
179	0x3def6b00	0.116903305
180	0xbdb37f19	-0.08764476
181	0xbdc19ec5	-0.09454111
182	0x3d68a97f	0.05680227
183	0xbc081dba	-0.008307869
184	0x3c8fd8e2	0.017559472
185	0xbc8b9708	-0.01703979
186	0x3ca5a4ef	0.020220248
187	0xbaf3654a	-0.0018569615
188	0x3d2c3b58	0.042048782
189	0x3d08dd3f	0.03341412
190	0xbd62d2ae	-0.0553767
191	0x3c6cf53b	0.014462764
192	0x3d940ab3	0.07228603
193	0x3e199168	0.14996874
194	0xbbb81800	-0.0056180954
195	0xbd3a593e	-0.045495264
196	0x3d1f1908	0.03884223
197	0x3dcd6be9	0.10030348
198	0xbccddfb4	-0.025131084
199	0x3bbc3379	0.0057434407
200	0xbd1ff295	-0.039049704
201	0xbaa46282	-0.0012541565
202	0x3dd8c142	0.10583736
203	0xbcde2f42	-0.027122144
204	0x3da8dc99	0.08245201
205	0xbd081c8b	-0.033230346
206	0x3df4eaf4	0.11958876
207	0x3c96179d	0.018321807
208	0x3dd1d1ce	0.10245095
209	0x3dde4d30	0.10854566
210	0x3e0442bf	0.12916087
211	0x3d523e0e	0.05132871
212	0xbda1fef5	-0.07909957
213	0x3dc95666	0.09830932
214	0xbcd3e9bd	-0.025868291
215	0x3e25c1e4	0.16187245
216	0xbd5e457d	-0.054265488
217	0x3e02627b	0.1273288
218	0xbd6f3422	-0.058399327
219	0xba41218c	-0.00073673646
220	0x3dda145a	0.10648413
221	0x3ddc89e5	0.10768489
222	0x3cad8656	0.02118222
223	0xbd35701e	-0.044296376
224	0x3bfc80bd	0.0077057765
225	0x3d2a597d	0.04158925
226	0x3da4f722	0.08054949
227	0x3dbd8e0b	0.09255608
228	0x3e03f53f	0.12886523
229	0x3d963cf1	0.073358424
230	0xbd049724	-0.0323707
231	0x3d2d3316	0.042285047
232	0x3dcdd9e5	0.10051326
233	0xbd84e23d	-0.06488464
234	0xbaa9844b	-0.0012933103
235	0x3e44f239	0.19233026
236	0xbc67f3ca	-0.014157245
237	0x3bf91106	0.0076009063
238	0xbd898fe9	-0.06716902
239	0xbd6483c8	-0.05578974
240	0xbd0aabc9	-0.033855233
241	0x3e44428e	0.19166014
242	0xbcd0bfbb	-0.02548205
243	0x3e26f0a2	0.16302732
244	0xbd8ea1c7	-0.0696445
245	0xbd65beec	-0.05609028
246	0xbc965c36	-0.018354516
247	0xbda3fcbc	-0.0800719
248	0x3d7aae2a	0.061201252
249	0x39e31e2d	0.00043319297
250	0xbca16162	-0.019699756
251	0x3d817f5e	0.063231215
252	0x3c1d52d0	0.009602264
253	0xbdce4d92	-0.10073389
254	0xbd2c08bd	-0.04200052
255	0x3d29ebdb	0.041484695
